…
  [34mbackbone.p5_in.{bias, weight}[0m
  [34mproposal_generator.anchor_generator.cell_anchors.{1, 0, 2, 3, 4}[0m
  [34mbackbone.fpn_out.1.{weight, bias}[0m
  [34mbackbone.fpn_out.2.{bias, weight}[0m
  [34mbackbone.fpn_out.0.{weight, bias}[0m
  [34mproposal_generator.rpn_head.objectness_logits.{bias, weight}[0m
  [34mbackbone.fpn_in.1.{weight, bias}[0m
[05/24 22:38:48] fvcore.common.checkpoint INFO: The checkpoint state_dict contains keys that are not used by the model:
  [35mbackbone.bottom_up.fc.{weight, bias}[0m
[05/24 22:38:48] d2.engine.defaults INFO: Model:
ProposalNetwork(
  (backbone): FPN(
    (p5_in): Conv2d(2048, 256, kernel_size=(1, 1), stride=(1, 1))
    (p5_out): Conv2d(256, 256, kernel_size=(3, 3), stride=(1, 1), padding=(1, 1))
    (fpn_in): ModuleList(
      (0): Conv2d(1024, 256, kernel_size=(1, 1), stride=(1, 1))
      (1): Conv2d(512, 256, kernel_size=(1, 1), stride=(1, 1))
      (2): Conv2d(256, 256, kernel_size=(1, 1), stride=(1, 1))
    )
    (fpn_out): ModuleList(
      (0): Conv2d(256, 256, kernel_size=(3, 3), stride=(1, 1), padding=(1, 1))
      (1): Conv2d(256, 256, kernel_size=(3, 3), stride=(1, 1), padding=(1, 1))
      (2): Conv2d(256, 256, kernel_size=(3, 3), stride=(1, 1), padding=(1, 1))
    )
    (maxpool_p6): MaxPool2d(kernel_size=1, stride=2, padding=0, dilation=1, ceil_mode=False)
    (bottom_up): ResNet(
      (conv1): Conv2d(3, 64, kernel_size=(7, 7), stride=(2, 2), padding=(3, 3), bias=False)
      (bn1): AffineChannel2d(num_features=64, eps=1e-05)
      (relu): ReLU(inplace=True)
      (maxpool): MaxPool2d(kernel_size=3, stride=2, padding=1, dilation=1, ceil_mode=False)
      (layer1): Sequential(
        (0): Bottleneck(
          (conv1): Conv2d(64, 64, kernel_size=(1, 1), stride=(1, 1), bias=False)
          (bn1): AffineChannel2d(num_features=64, eps=1e-05)
          (conv2): Conv2d(64, 64, kernel_size=(3, 3), stride=(1, 1), padding=(1, 1), bias=False)
          (bn2): AffineChannel2d(num_features=64, eps=1e-05)
          (conv3): Conv2d(64, 256, kernel_size=(1, 1), stride=(1, 1), bias=False)
          (bn3): AffineChannel2d(num_features=256, eps=1e-05)
          (relu): ReLU(inplace=True)
          (downsample): Sequential(
            (0): Conv2d(64, 256, kernel_size=(1, 1), stride=(1, 1), bias=False)
            (1): AffineChannel2d(num_features=256, eps=1e-05)
          )
        )
        (1): Bottleneck(
          (conv1): Conv2d(256, 64, kernel_size=(1, 1), stride=(1, 1), bias=False)
          (bn1): AffineChannel2d(num_features=64, eps=1e-05)
          (conv2): Conv2d(64, 64, kernel_size=(3, 3), stride=(1, 1), padding=(1, 1), bias=False)
          (bn2): AffineChannel2d(num_features=64, eps=1e-05)
          (conv3): Conv2d(64, 256, kernel_size=(1, 1), stride=(1, 1), bias=False)
          (bn3): AffineChannel2d(num_features=256, eps=1e-05)
          (relu): ReLU(inplace=True)
        )
        (2): Bottleneck(
          (conv1): Conv2d(256, 64, kernel_size=(1, 1), stride=(1, 1), bias=False)
          (bn1): AffineChannel2d(num_features=64, eps=1e-05)
          (conv2): Conv2d(64, 64, kernel_size=(3, 3), stride=(1, 1), padding=(1, 1), bias=False)
          (bn2): AffineChannel2d(num_features=64, eps=1e-05)
          (conv3): Conv2d(64, 256, kernel_size=(1, 1), stride=(1, 1), bias=False)
          (bn3): AffineChannel2d(num_features=256, eps=1e-05)
          (relu): ReLU(inplace=True)
        )
      )
      (layer2): Sequential(
        (0): Bottleneck(
          (conv1): Conv2d(256, 128, kernel_size=(1, 1), stride=(2, 2), bias=False)
          (bn1): AffineChannel2d(num_features=128, eps=1e-05)
          (conv2): Conv2d(128, 128, kernel_size=(3, 3), stride=(1, 1), padding=(1, 1), bias=False)
          (bn2): AffineChannel2d(num_features=128, eps=1e-05)
          (conv3): Conv2d(128, 512, kernel_size=(1, 1), stride=(1, 1), bias=False)
          (bn3): AffineChannel2d(num_features=512, eps=1e-05)
          (relu): ReLU(inplace=True)
          (downsample): Sequential(
            (0): Conv2d(256, 512, kernel_size=(1, 1), stride=(2, 2), bias=False)
            (1): AffineChannel2d(num_features=512, eps=1e-05)
          )
        )
        (1): Bottleneck(
          (conv1): Conv2d(512, 128, kernel_size=(1, 1), stride=(1, 1), bias=False)
          (bn1): AffineChannel2d(num_features=128, eps=1e-05)
          (conv2): Conv2d(128, 128, kernel_size=(3, 3), stride=(1, 1), padding=(1, 1), bias=False)
          (bn2): AffineChannel2d(num_features=128, eps=1e-05)
          (conv3): Conv2d(128, 512, kernel_size=(1, 1), stride=(1, 1), bias=False)
          (bn3): AffineChannel2d(num_features=512, eps=1e-05)
          (relu): ReLU(inplace=True)
        )
        (2): Bottleneck(
          (conv1): Conv2d(512, 128, kernel_size=(1, 1), stride=(1, 1), bias=False)
          (bn1): AffineChannel2d(num_features=128, eps=1e-05)
          (conv2): Conv2d(128, 128, kernel_size=(3, 3), stride=(1, 1), padding=(1, 1), bias=False)
          (bn2): AffineChannel2d(num_features=128, eps=1e-05)
          (conv3): Conv2d(128, 512, kernel_size=(1, 1), stride=(1, 1), bias=False)
          (bn3): AffineChannel2d(num_features=512, eps=1e-05)
          (relu): ReLU(inplace=True)
        )
        (3): Bottleneck(
          (conv1): Conv2d(512, 128, kernel_size=(1, 1), stride=(1, 1), bias=False)
          (bn1): AffineChannel2d(num_features=128, eps=1e-05)
          (conv2): Conv2d(128, 128, kernel_size=(3, 3), stride=(1, 1), padding=(1, 1), bias=False)
          (bn2): AffineChannel2d(num_features=128, eps=1e-05)
          (conv3): Conv2d(128, 512, kernel_size=(1, 1), stride=(1, 1), bias=False)
          (bn3): AffineChannel2d(num_features=512, eps=1e-05)
          (relu): ReLU(inplace=True)
        )
      )
      (layer3): Sequential(
        (0): Bottleneck(
          (conv1): Conv2d(512, 256, kernel_size=(1, 1), stride=(2, 2), bias=False)
          (bn1): AffineChannel2d(num_features=256, eps=1e-05)
          (conv2): Conv2d(256, 256, kernel_size=(3, 3), stride=(1, 1), padding=(1, 1), bias=False)
          (bn2): AffineChannel2d(num_features=256, eps=1e-05)
          (conv3): Conv2d(256, 1024, kernel_size=(1, 1), stride=(1, 1), bias=False)
          (bn3): AffineChannel2d(num_features=1024, eps=1e-05)
          (relu): ReLU(inplace=True)
          (downsample): Sequential(
            (0): Conv2d(512, 1024, kernel_size=(1, 1), stride=(2, 2), bias=False)
            (1): AffineChannel2d(num_features=1024, eps=1e-05)
          )
        )
        (1): Bottleneck(
          (conv1): Conv2d(1024, 256, kernel_size=(1, 1), stride=(1, 1), bias=False)
          (bn1): AffineChannel2d(num_features=256, eps=1e-05)
          (conv2): Conv2d(256, 256, kernel_size=(3, 3), stride=(1, 1), padding=(1, 1), bias=False)
          (bn2): AffineChannel2d(num_features=256, eps=1e-05)
          (conv3): Conv2d(256, 1024, kernel_size=(1, 1), stride=(1, 1), bias=False)
          (bn3): AffineChannel2d(num_features=1024, eps=1e-05)
          (relu): ReLU(inplace=True)
        )
        (2): Bottleneck(
          (conv1): Conv2d(1024, 256, kernel_size=(1, 1), stride=(1, 1), bias=False)
          (bn1): AffineChannel2d(num_features=256, eps=1e-05)
          (conv2): Conv2d(256, 256, kernel_size=(3, 3), stride=(1, 1), padding=(1, 1), bias=False)
          (bn2): AffineChannel2d(num_features=256, eps=1e-05)
          (conv3): Conv2d(256, 1024, kernel_size=(1, 1), stride=(1, 1), bias=False)
          (bn3): AffineChannel2d(num_features=1024, eps=1e-05)
          (relu): ReLU(inplace=True)
        )
        (3): Bottleneck(
          (conv1): Conv2d(1024, 256, kernel_size=(1, 1), stride=(1, 1), bias=False)
          (bn1): AffineChannel2d(num_features=256, eps=1e-05)
          (conv2): Conv2d(256, 256, kernel_size=(3, 3), stride=(1, 1), padding=(1, 1), bias=False)
          (bn2): AffineChannel2d(num_features=256, eps=1e-05)
          (conv3): Conv2d(256, 1024, kernel_size=(1, 1), stride=(1, 1), bias=False)
          (bn3): AffineChannel2d(num_features=1024, eps=1e-05)
          (relu): ReLU(inplace=True)
        )
        (4): Bottleneck(
          (conv1): Conv2d(1024, 256, kernel_size=(1, 1), stride=(1, 1), bias=False)
          (bn1): AffineChannel2d(num_features=256, eps=1e-05)
          (conv2): Conv2d(256, 256, kernel_size=(3, 3), stride=(1, 1), padding=(1, 1), bias=False)
          (bn2): AffineChannel2d(num_features=256, eps=1e-05)
          (conv3): Conv2d(256, 1024, kernel_size=(1, 1), stride=(1, 1), bias=False)
          (bn3): AffineChannel2d(num_features=1024, eps=1e-05)
          (relu): ReLU(inplace=True)
        )
        (5): Bottleneck(
          (conv1): Conv2d(1024, 256, kernel_size=(1, 1), stride=(1, 1), bias=False)
          (bn1): AffineChannel2d(num_features=256, eps=1e-05)
          (conv2): Conv2d(256, 256, kernel_size=(3, 3), stride=(1, 1), padding=(1, 1), bias=False)
          (bn2): AffineChannel2d(num_features=256, eps=1e-05)
          (conv3): Conv2d(256, 1024, kernel_size=(1, 1), stride=(1, 1), bias=False)
          (bn3): AffineChannel2d(num_features=1024, eps=1e-05)
          (relu): ReLU(inplace=True)
        )
      )
      (layer4): Sequential(
        (0): Bottleneck(
          (conv1): Conv2d(1024, 512, kernel_size=(1, 1), stride=(2, 2), bias=False)
          (bn1): AffineChannel2d(num_features=512, eps=1e-05)
          (conv2): Conv2d(512, 512, kernel_size=(3, 3), stride=(1, 1), padding=(1, 1), bias=False)
          (bn2): AffineChannel2d(num_features=512, eps=1e-05)
          (conv3): Conv2d(512, 2048, kernel_size=(1, 1), stride=(1, 1), bias=False)
          (bn3): AffineChannel2d(num_features=2048, eps=1e-05)
          (relu): ReLU(inplace=True)
          (downsample): Sequential(
            (0): Conv2d(1024, 2048, kernel_size=(1, 1), stride=(2, 2), bias=False)
            (1): AffineChannel2d(num_features=2048, eps=1e-05)
          )
        )
        (1): Bottleneck(
          (conv1): Conv2d(2048, 512, kernel_size=(1, 1), stride=(1, 1), bias=False)
          (bn1): AffineChannel2d(num_features=512, eps=1e-05)
          (conv2): Conv2d(512, 512, kernel_size=(3, 3), stride=(1, 1), padding=(1, 1), bias=False)
          (bn2): AffineChannel2d(num_features=512, eps=1e-05)
          (conv3): Conv2d(512, 2048, kernel_size=(1, 1), stride=(1, 1), bias=False)
          (bn3): AffineChannel2d(num_features=2048, eps=1e-05)
          (relu): ReLU(inplace=True)
        )
        (2): Bottleneck(
          (conv1): Conv2d(2048, 512, kernel_size=(1, 1), stride=(1, 1), bias=False)
          (bn1): AffineChannel2d(num_features=512, eps=1e-05)
          (conv2): Conv2d(512, 512, kernel_size=(3, 3), stride=(1, 1), padding=(1, 1), bias=False)
          (bn2): AffineChannel2d(num_features=512, eps=1e-05)
          (conv3): Conv2d(512, 2048, kernel_size=(1, 1), stride=(1, 1), bias=False)
          (bn3): AffineChannel2d(num_features=2048, eps=1e-05)
          (relu): ReLU(inplace=True)
        )
      )
    )
  )
  (proposal_generator): RPN(
    (anchor_generator): DefaultAnchorGenerator(
      (cell_anchors): BufferList()
    )
    (rpn_head): StandardRPNHead(
      (conv): Conv2d(256, 256, kernel_size=(3, 3), stride=(1, 1), padding=(1, 1))
      (objectness_logits): Conv2d(256, 3, kernel_size=(1, 1), stride=(1, 1))
      (anchor_deltas): Conv2d(256, 12, kernel_size=(1, 1), stride=(1, 1))
    )
  )
)
[05/24 22:38:48] d2.engine.train_loop INFO: Starting training from iteration 0
[05/24 22:40:03] d2.utils.events INFO:  eta: 7:13:35  iter: 199  total_loss: 0.292  loss_rpn_cls: 0.157  loss_rpn_loc: 0.133  time: 0.2895  data_time: 0.0092  lr: 0.003996  max_mem: 2541M
[05/24 22:41:01] d2.utils.events INFO:  eta: 7:14:20  iter: 399  total_loss: 0.253  loss_rpn_cls: 0.135  loss_rpn_loc: 0.107  time: 0.2910  data_time: 0.0090  lr: 0.007992  max_mem: 2541M
…
